…
                                2080)
 block8_10 (Lambda)             (None, None, None,   0           ['block8_9_ac[0][0]',
                                2080)                             'block8_10_conv[0][0]']
 conv_7b (Conv2D)               (None, None, None,   3194880     ['block8_10[0][0]']
                                1536)
 conv_7b_bn (BatchNormalization  (None, None, None,   4608       ['conv_7b[0][0]']
 )                              1536)
 conv_7b_ac (Activation)        (None, None, None,   0           ['conv_7b_bn[0][0]']
                                1536)
 global_average_pooling2d (Glob  (None, 1536)        0           ['conv_7b_ac[0][0]']
 alAveragePooling2D)
 dense (Dense)                  (None, 128)          196736      ['global_average_pooling2d[0][0]'
                                                                 ]
 dense_1 (Dense)                (None, 64)           8256        ['dense[0][0]']
 dropout (Dropout)              (None, 64)           0           ['dense_1[0][0]']
 dense_2 (Dense)                (None, 2)            130         ['dropout[0][0]']
==================================================================================================
Total params: 54,541,858
Trainable params: 54,481,314
Non-trainable params: 60,544
__________________________________________________________________________________________________
